…
2020-12-29 01:58:28.739359: I tensorflow/compiler/jit/xla_gpu_device.cc:99] Not creating XLA devices, tf_xla_enable_xla_devices not set
2020-12-29 01:58:30.783869: I tensorflow/compiler/mlir/mlir_graph_optimization_pass.cc:116] None of the MLIR optimization passes are enabled (registered 2)
Count of train images: 41076
Count of validation images: 937
Model: "model"
_________________________________________________________________
Layer (type)                 Output Shape              Param #
=================================================================
input_2 (InputLayer)         [(None, 224, 224, 1)]     0
_________________________________________________________________
tf.image.grayscale_to_rgb (T (None, 224, 224, 3)       0
_________________________________________________________________
mobilenetv2_1.00_224 (Functi (None, 7, 7, 1280)        2257984
_________________________________________________________________
conv2d_transpose (Conv2DTran (None, 28, 28, 128)       2621568
_________________________________________________________________
conv2d_transpose_1 (Conv2DTr (None, 56, 56, 128)       65664
_________________________________________________________________
conv2d_transpose_2 (Conv2DTr (None, 112, 112, 64)      32832
_________________________________________________________________
conv2d_transpose_3 (Conv2DTr (None, 224, 224, 2)       514
_________________________________________________________________
dense (Dense)                (None, 224, 224, 2)       6
=================================================================
Total params: 4,978,568
Trainable params: 2,720,584
Non-trainable params: 2,257,984
_________________________________________________________________
None
2020-12-29 01:59:08.206308: I tensorflow/core/profiler/lib/profiler_session.cc:136] Profiler session initializing.
2020-12-29 01:59:08.210532: I tensorflow/core/profiler/lib/profiler_session.cc:155] Profiler session started.
…
